TenflowLiteModelCreation/ventilation_5_levels.tflite (tflite, 7628 bytes, 6 tensors)

arith.constant f4 [5, 32]
000000 5e af 78 bd 9e 83 19 bf 23 c1 64 bc 7e eb 00 3f
       -0.06071412 -0.59966457 -0.013962063 0.5035933
000010 0f c7 1f be 47 62 ae 3e 1e f2 02 bf b9 34 e7 3e
       -0.15603279 0.34059355 -0.5115069 0.45157412
000020 6e 2b 01 bf f2 7a ab be d1 13 0c be 96 2a b1 3e
       -0.50456893 -0.33492237 -0.13679434 0.34602803
000030 cf 0e 22 3f 68 a8 af 3e 30 bb 22 3e f8 8f 2c bf
       0.63303846 0.3430817 0.15891719 -0.6740718
000040 6a 01 c9 be 9d d5 40 bf d8 75 bc bd 2e 97 2d 3e
       -0.3925889 -0.7532595 -0.092021644 0.16952202
000050 4d 1a 17 3f 35 0c 73 3d a8 32 85 3e cd 90 0b 3f
       0.59024507 0.059337813 0.2601521 0.54517823
000060 c8 ac 42 bf a7 0c db be cd 50 c3 bd 2c ad d0 be
       -0.76044893 -0.4278309 -0.09536896 -0.4075712
000070 b5 35 e8 3e 93 1d 20 3e 42 1a c9 3e 30 0a 8c bd
       0.45353475 0.15636282 0.39277846 -0.068378806
000080 99 ca ed be fd 12 37 3e 91 2b 9d 3b 2b 98 aa be
       -0.46443632 0.17878337 0.0047964533 -0.3331922
000090 34 77 3d be 94 b6 5d 3e 65 40 98 3e 96 90 be 3e
       -0.18502504 0.2165168 0.2973663 0.37219685
0000a0 a9 30 01 3f 04 fb 85 3e 2d 25 5e 3e 7f 81 2a 3d
       0.50464875 0.26168072 0.21693869 0.041627403
0000b0 14 ea 98 3e 79 58 86 be 03 54 ab 3e 39 97 02 be
       0.29866087 -0.26239374 0.33462533 -0.12753
0000c0 dc e1 bd bd b0 2d 03 bf 5b b0 b4 3e c2 df 31 be
       -0.09271595 -0.5124159 0.352908 -0.17370513
0000d0 79 b6 b6 be 7c 96 8b be 93 cb 5c 3e 81 a5 9e bd
       -0.3568609 -0.27263248 0.21562032 -0.07746411
0000e0 9f f4 7f be a2 2c 8b 3d 23 a6 c4 3e c0 00 58 3e
       -0.2499566 0.067956224 0.38408002 0.21094036
0000f0 93 18 83 3d 63 b7 f8 3e 36 02 a5 3e 41 bc 4e be
       0.064011715 0.48577413 0.3222825 -0.20189
000100 8b 48 69 be 20 62 8a bd c4 fb cc 3b 01 da 12 bf
       -0.22781579 -0.06756997 0.0062555987 -0.573639
000110 11 5b 01 3e 21 aa a4 be f9 f8 fa 3e cf 4a a8 be
       0.12632395 -0.32161048 0.49018076 -0.32869574
000120 91 26 4f 3e 9c 02 62 bd 26 25 e9 3e 60 92 e3 be
       0.20229556 -0.05517827 0.45536155 -0.44447613
000130 88 7a a1 be a6 8a 8e 3e 6d b9 c0 be b7 17 57 bd
       -0.31538796 0.27840155 -0.3764147 -0.05251285
000140 f8 c3 04 3e 35 e7 76 3e 35 79 b9 be 45 a1 1d be
       0.12965381 0.24111636 -0.36225286 -0.1539355
000150 b0 7e 47 be ee bc 26 3e 04 bc ad 3e 2f 5f 08 bd
       -0.19481921 0.16283008 0.33932507 -0.0332939
000160 79 07 27 3e 0e c4 61 3e e3 f1 c2 bb 6e f3 ea 3e
       0.16311444 0.22047445 -0.0059492453 0.45888847
000170 5a 95 4d bf 08 3d a5 bd 36 3c 9d be 1f 9b 2b bf
       -0.8030602 -0.080682814 -0.3071 -0.6703357
000180 a3 70 83 3d f9 97 db 3d e2 cd a2 3e 14 2d 0e be
       0.06417968 0.10722346 0.317977 -0.13884383
000190 73 28 3b 3d 3d bf 6b be c2 4c c9 3d 3f 3d 87 bd
       0.045692872 -0.2302217 0.098290935 -0.06603479
0001a0 d0 5e b8 bd b9 14 2e be 05 9a 04 bf a4 bc e1 be
       -0.09002459 -0.17000093 -0.51797515 -0.44089234
0001b0 65 f3 d6 be dc 68 79 be 41 c5 81 bd 23 3f a4 be
       -0.4198257 -0.24356407 -0.06336451 -0.3207942
0001c0 c0 e8 82 bc 93 37 e0 3e 52 c7 c7 be aa fe 8f 3d
       -0.015980124 0.437924 -0.39019257 0.07030995
0001d0 04 ce 8b be dd ad f5 3e f7 b6 9a bc 43 ee ad 3d
       -0.27305615 0.4798421 -0.018886073 0.084927104
0001e0 01 f7 32 3e 54 1a 6b be ca 27 9d be cd 5b e2 3e
       0.17477037 -0.22959262 -0.3069442 0.44210663
0001f0 7b ed 35 bf ff 47 05 bf ee 74 96 be 6d 14 cf 3e
       -0.7106549 -0.5206298 -0.29386085 0.4044527
000200 63 a0 df 3e 21 5e c8 be 46 2a 13 3f 0b 50 fa bd
       0.43677053 -0.39134315 0.5748638 -0.12222298
000210 47 77 36 be c8 d7 b8 3e 18 9a ff 3e 8f 27 89 be
       -0.17818938 0.36102128 0.49922252 -0.26787993
000220 0b eb a7 3d 83 98 1a 3c 54 b9 5f bf c1 f0 ad be
       0.08199128 0.009435776 -0.87392163 -0.33972743
000230 90 0d 20 be 57 a8 0c bf 70 fd bc be 95 50 37 bf
       -0.15630174 -0.54944366 -0.36912107 -0.71607333
000240 c0 58 a9 3e cf 3a 2d be c3 f2 56 be a9 e5 37 be
       0.33075523 -0.16916965 -0.20991044 -0.17958702
000250 3f 3b ab be fb fe 7d be 19 a3 4d bf c4 e7 23 bd
       -0.3344364 -0.24804299 -0.8032699 -0.04001595
000260 32 df 32 3e 80 98 75 bf 2f 63 37 bf 9c 86 d6 3e
       0.17467955 -0.9593582 -0.7163572 0.41899574
000270 ac ce af be 96 3b 1d bf 88 26 0a bf 10 1d 06 3f
       -0.34337366 -0.61419046 -0.53965044 0.52388096

arith.constant1 f4 [32, 32]
000000 c9 b8 5b 3e db c8 bd 3d 85 80 e3 3e 18 ad 4d bd
       0.21457209 0.09266826 0.4443399 -0.050213903
000010 e5 25 07 3b 7e f3 33 3e 11 64 d3 3e fd 2c 47 be
       0.0020621952 0.17573354 0.41287282 -0.19450755
000020 a5 ff 95 bc 3f a9 e1 3b 8e 54 b2 be 35 40 8f 3e
       -0.018310377 0.006886631 -0.34830135 0.27978674
000030 a7 b3 4a be 91 01 c1 3e a7 6d 90 3d f5 e8 50 be
       -0.19795094 0.37696508 0.070521645 -0.20401366
000040 fe e3 c8 3d f3 fc 66 bd cc f0 8a 3d 54 7a f4 bc
       0.09809111 -0.056393575 0.067842096 -0.029843487
000050 b8 bb 88 3d ad 93 1f be 8a 0d e9 bd 4f c7 8c 3e
       0.066764295 -0.15583678 -0.113795355 0.2749581
000060 47 3c b8 3e dd ab 23 3f 3f 74 3d be 34 db 07 3e
       0.35983488 0.6393412 -0.18501376 0.13267213
000070 e1 32 b1 bc c4 25 72 3e 15 79 75 3e ff aa c8 bd
       -0.021630706 0.23647219 0.2397197 -0.0979824
000080 e8 25 b3 3e 83 01 b0 3c 8b 4f e6 3d b5 37 43 3e
       0.34989858 0.021485096 0.1124564 0.1906422
000090 0e 5b c3 be a5 c5 a3 be 77 7f a1 3d 96 4e c4 bd
       -0.38155407 -0.31986728 0.0788564 -0.095853016
0000a0 e7 54 f1 bd fb e5 e0 3d ae 0a 50 3e e7 b2 4b 3e
       -0.11783772 0.10981365 0.20316574 0.19892465
0000b0 39 2f a3 3e 64 71 ca bd 9a d7 4a be 25 29 53 3e
       0.31871966 -0.09884909 -0.19808808 0.20621164
0000c0 d6 17 ca 3d 59 d7 bf be ec cd 84 be aa b9 5d 3d
       0.098678276 -0.37468985 -0.25938356 0.05413214
0000d0 d2 0c a0 3d 59 11 d2 3d 30 fd 5d bd 2b dc 97 bd
       0.07814945 0.10257215 -0.054196537 -0.074150406
0000e0 a5 71 bc 3d 11 99 20 3e 07 ed 77 3e fc 14 1d be
       0.092013635 0.1568339 0.24211513 -0.15340036
0000f0 82 b7 8d bd f3 c0 9d be 0b 4b 85 be 43 da 44 bd
       -0.06919767 -0.3081127 -0.26033816 -0.048059713
000100 e6 3b 55 3e 94 0e 6d be d5 84 d5 3e 1d 3d 94 3e
       0.2082363 -0.23150092 0.41702905 0.28952876
000110 a2 d5 41 3d 15 05 4d 3e 70 fd 54 3e 44 5b 9e be
       0.047322877 0.2002147 0.20799804 -0.30929005
000120 71 d2 29 be 88 31 8d bd f4 db 6e bd 80 79 ce be
       -0.16584183 -0.06894213 -0.058315232 -0.40327072
000130 df 34 cf bd d5 54 be 3e 3a 8d 7d 3e a2 22 6e 3e
       -0.10117506 0.37174097 0.24760905 0.23255399
000140 94 e3 c4 bc 41 c0 d5 be 63 7e 35 3c bf b7 04 bf
       -0.024034299 -0.4174824 0.011077496 -0.51842874
000150 70 1f 06 be 7f 8e 59 be 0a fe dc be 4a f8 20 3f
       -0.1309793 -0.21245764 -0.43162566 0.6287886
000160 d4 2a 49 3e 33 7a 08 3f d2 6b 73 be f2 b0 ef 3c
       0.19645244 0.5331146 -0.23771599 0.029259179
000170 19 d5 05 bf 3a f2 2a bd 85 f8 f6 3e d3 a1 bc bc
       -0.52278286 -0.04173491 0.4823648 -0.023026383
000180 b7 41 c2 be 55 26 2b 3e 89 3b 1e bf 43 9b de 3d
       -0.3794076 0.16713841 -0.61809593 0.108694576
000190 04 8c 70 be fe 79 09 3f 6c d1 c3 be e2 ed 93 bd
       -0.23490912 0.5370177 -0.38245714 -0.07223107
0001a0 4a 8c 04 be c6 43 c8 3e 82 73 59 3e fd f2 19 3d
       -0.12944141 0.39114207 0.21235469 0.037585247
0001b0 fb 12 9f 3e a4 f7 aa bd 12 e9 ab be 96 89 fd bd
       0.31069168 -0.08348015 -0.33576256 -0.12379758
0001c0 45 4f 91 be d5 9b 0c 3e 20 70 d4 be 4c 6b 81 3e
       -0.2838079 0.1373132 -0.41491795 0.25277174
0001d0 8c 0e fb bc dd c7 f2 3e 3b 06 8f 3e d9 16 22 3b
       -0.030646585 0.4741811 0.2793444 0.0024732857
0001e0 ea 9f f3 be 24 6d 92 be 58 82 00 3e eb 0a 87 3e
       -0.47582942 -0.28598893 0.12549722 0.26375517
0001f0 67 ed 73 3e ac b7 6d 3c f0 66 00 bf df 93 1a 3e
       0.2382103 0.014509123 -0.5015707 0.15095471
000200 c6 2d da 3d 65 55 20 be 65 d0 61 3c 91 f1 40 3d
       0.10653262 -0.15657575 0.013782595 0.047105376
000210 55 30 fd bc dc f5 c7 be d7 c0 a8 3d 54 fd de bc
       -0.030906836 -0.39054763 0.08239906 -0.027220406
000220 0a af a7 bd 76 f5 03 3e ce 2b 69 3e 08 bd 15 be
       -0.08187683 0.12886605 0.22770616 -0.14622891
000230 53 17 ed bd 38 fb 29 bd eb 50 ea 3d 41 4c 16 be
       -0.11576714 -0.041499346 0.11441215 -0.14677526
000240 0c 83 a5 be a8 19 f5 3d 8a 0f 95 bd 6f 4b 8e 3d
       -0.32326543 0.11967784 -0.072783545 0.069479816
000250 e5 4e 7e bd 3c 0a 47 be 19 d4 67 bd 8d 6e ad be
       -0.06208696 -0.19437498 -0.056598756 -0.33873406
000260 ed 54 69 3e d4 83 46 be fc 60 12 3e 1b 7c 59 bc
       0.22786303 -0.19386226 0.14294809 -0.013274218
000270 a7 f2 2b 3e 80 c0 62 3e 91 0d 6e 3e 6d e0 bd bd
       0.16791783 0.22143745 0.23247363 -0.092713214
000280 29 2d 93 be 0c 57 20 3e ab d6 2b 3e 34 b3 a0 bd
       -0.28745392 0.15658206 0.16781108 -0.0784668
000290 ee b0 df bd 9d 0a 8a be 36 2f 1e 3e c9 70 8f be
       -0.109224185 -0.26961222 0.15447697 -0.28015736
0002a0 69 0a d5 3c 68 5a ce 3c 75 af 97 be 87 99 90 bd
       0.02600594 0.025189593 -0.2962605 -0.07060533
0002b0 e1 0b 09 3c f6 5f 3e be c4 2e 5b be a7 6d 93 be
       0.008364649 -0.18591294 -0.21404558 -0.28794596
0002c0 92 d5 b3 3d 70 45 8c be db 68 42 be 09 fd 66 be
       0.0878097 -0.27396727 -0.18985312 -0.22557463
0002d0 78 75 4b 3e 98 44 0a be 4a 25 94 3e 77 21 18 be
       0.1986903 -0.13502729 0.289347 -0.14856516
0002e0 c8 cd 74 be 73 ba e0 bd 40 be d2 bc 6d fa 8e 3e
       -0.23906624 -0.10973062 -0.025725484 0.27925435
0002f0 48 55 6f be 0d 71 9a 3e 1d 2c 9a be 75 4d 45 3e
       -0.23372376 0.30164376 -0.3011178 0.19267829
000300 57 e0 07 3f b3 2e 5a 3e 8e fe 37 3e d8 f6 c7 3e
       0.5307669 0.21306877 0.17968199 0.39055514
000310 0c 28 86 3e 3e 5a ae be aa d1 12 3e 8b 0e 7e be
       0.26202428 -0.34053224 0.14337793 -0.24810235
000320 d7 3f 4d be 59 e8 c5 bd eb 37 d9 3d a0 9a 31 3e
       -0.20043884 -0.096634574 0.10606369 0.17344141
000330 4b c2 8e 3e be 55 c5 3e 41 c7 b3 3d d4 69 d3 3e
       0.2788261 0.3854198 0.08778239 0.41291678
000340 af d0 fd bc 58 6e a6 bd b1 5f 13 be 46 03 66 be
       -0.030983297 -0.08126515 -0.14391972 -0.22462186
000350 23 47 3c 3e 9b 73 af be f4 d2 57 bc 8e d8 4c 3d
       0.18386512 -0.34267887 -0.013172854 0.05001121
000360 72 9a 96 3e b0 aa 05 3f 6c 1c 2c be cb a8 8c bd
       0.29414707 0.52213573 -0.16807717 -0.06868132
000370 5c e9 45 3e 0c d2 19 3d 99 96 ea 3d bc 61 23 bd
       0.19327301 0.037553832 0.114545055 -0.03988813
000380 47 52 11 be fa 87 59 3e 2c 3d 2b bc 31 1e 2e 3d
       -0.14191543 0.21243277 -0.010451596 0.04250926
000390 78 45 8c 3d f1 c1 fa 3e 60 d3 e0 bd f0 b0 0b 3d
       0.068491876 0.4897609 -0.109778166 0.034104288
0003a0 e8 4e bf bc d8 8d b1 3e 7f f8 02 3e a3 93 09 3d
       -0.023353055 0.3467853 0.12790106 0.033588063
0003b0 ce 79 f8 3e d7 87 c1 3d 61 c5 8a be 9b a1 35 3e
       0.4853043 0.094497375 -0.27103713 0.17737429
0003c0 34 54 98 be 64 8b 43 3e 31 8b e7 bd c1 8b e2 3e
       -0.29751742 0.19096142 -0.113058455 0.4424725
0003d0 96 52 29 be 91 f5 b4 3d 95 f4 10 bc d2 01 b5 bd
       -0.1653541 0.088359006 -0.008847375 -0.08838238
0003e0 56 2b 03 bf 39 ef 0d be 18 c2 8f 3e 71 5d 22 3e
       -0.51238 -0.13860787 0.2807777 0.15855958
0003f0 64 d2 8b 3e 6d f1 75 3a ff 64 91 be 16 5e b0 3c
       0.27308953 0.00093819835 -0.28397366 0.021529239

arith.constant2 f4 [5]
000000 57 c8 14 bd c1 ad b0 3d 53 73 17 3e 4b 03 b5 bd
       -0.03632387 0.08626891 0.14790086 -0.08838519
000010 1f 68 42 be
       -0.18985032

sequential_1/dense_1_2/BiasAdd/ReadVariableOp f4 [32]
000000 a0 6e 1c be 14 f0 18 3e ff 50 44 be 70 c2 30 3c
       -0.15276575 0.14935333 -0.19171523 0.010788545
000010 ff 17 b4 3c a8 07 ba 3b d8 43 52 3e 09 1a 56 3d
       0.021984098 0.005677182 0.20533693 0.052270923
000020 d8 4c 99 3d 7d 32 09 3d 9f c1 9f 3e 65 3c db 3d
       0.0748536 0.033495415 0.3120241 0.10704879
000030 73 8f 0e 3e c4 d5 c2 3d 96 3e b2 3c 47 4b af 3e
       0.13921909 0.09513429 0.021758359 0.3423712
000040 00 00 00 00 f6 da 27 3e 53 b3 b6 3d 17 47 d8 bd
       0.0 0.1639212 0.08920922 -0.10560434
000050 35 55 d8 bb ac 70 d2 bd 79 97 92 3e 1d f3 7d bd
       -0.0066019543 -0.10275397 0.2863119 -0.06199943
000060 35 8e 29 3e c9 c3 ad 3e af b3 83 3e 3a 3a a0 3e
       0.16558154 0.33938435 0.25723025 0.31294423
000070 2e 29 2e 3e 81 48 8a 3e 2c e2 24 3e 3a 29 2b be
       0.17007896 0.2700844 0.16101903 -0.16714945

sequential_1/dense_1/BiasAdd/ReadVariableOp f4 [32]
000000 ba 99 ba 3e 66 8b 9b 3e 46 62 8a 3e 03 ce c4 3e
       0.3644541 0.3037979 0.27028102 0.38438424
000010 60 d9 1f be 9e 0c 03 3e 62 f1 0d be d5 54 ba 3d
       -0.15610266 0.12797782 -0.13861611 0.09098212
000020 59 4f 8b 3e 46 fa 04 3e 48 74 c8 3e ff ad e0 3d
       0.27208975 0.12986097 0.39151216 0.10970687
000030 b4 f2 79 3e 06 08 72 3e b2 81 9c 3e 21 9a da 3e
       0.2440899 0.23635873 0.305677 0.42695716
000040 81 90 a7 bd a4 2b 90 3e c6 29 d7 bd 64 d3 95 3e
       -0.08181859 0.28158295 -0.105060145 0.2926284
000050 4c d8 5e 3e 13 2d 4a 3e 99 18 54 3e 5b 2e dd bd
       0.21762198 0.19743757 0.20712508 -0.10799857
000060 48 64 b9 3e c8 35 1d 3e 2a 8e a3 3e 4b e9 37 3e
       0.3620932 0.15352547 0.319444 0.17960088
000070 a9 3a cc 3e 95 fe 60 3c 06 1d 85 3e f7 cc 04 3e
       0.39888504 0.013732572 0.25998706 0.12968813

sequential_1/dense_1/MatMul f4 [32, 4]
000000 f9 f3 cd bd 6d 9b d2 bd 13 f8 8d 3e 21 b0 f5 be
       -0.100563 -0.10283551 0.27728328 -0.47985938
000010 de 3b bf 3e 78 54 ed be 9c 59 b7 be 6f 70 29 3e
       0.37350363 -0.46353507 -0.35810554 0.16546796
000020 05 9a 10 bc 7d d1 85 3d b8 dd 0d 3f 20 22 50 be
       -0.008825784 0.06534097 0.5541644 -0.20325518
000030 e1 16 94 3e 9a ab 7f be eb b8 0a 3f 20 af e8 be
       0.28923705 -0.24967805 0.5418841 -0.4544611
000040 3a 11 1b be b1 d1 b3 bc f1 a1 2c be f5 7e 20 3f
       -0.1514329 -0.021950575 -0.1685865 0.6269372
000050 c0 71 0d bc c4 85 55 3c 61 2b 35 bf ac 0c c4 be
       -0.008633077 0.0130323805 -0.70769316 -0.38290918
000060 5d df e4 3d 4a 7d ea 3b f6 c3 08 3f 68 ee 5a be
       0.11175416 0.007156049 0.5342401 -0.21380007
000070 74 34 1a bf 97 22 41 be b2 ae f5 be fc 6d a8 3d
       -0.6023629 -0.18860851 -0.47984844 0.08224103
000080 59 98 83 bd 8d 73 a3 3e 1b 54 03 3e b5 d0 0d 3f
       -0.064255424 0.31924096 0.12825052 0.55396587
000090 88 54 53 3d 09 bc 61 3e bd 3e 2a bf eb 6f 7b be
       0.051594287 0.22044386 -0.6650198 -0.24554412
0000a0 67 d6 72 3c 1d 61 d0 3e af c6 90 be 5d ba 9d be
       0.014821625 0.40699092 -0.28276584 -0.30806246
0000b0 d1 fe 28 3e 5d 55 b5 be 5e d6 61 be 12 dd bc 3e
       0.16503455 -0.3541669 -0.22054431 0.36887413
0000c0 fe 1f c0 be fe 88 0a be ab 11 b6 be 53 8f 25 be
       -0.37524408 -0.13528821 -0.35560355 -0.16167955
0000d0 db ba 9e 3e 84 19 9f 3e 63 3b e5 3e 7b f2 7b 3e
       0.31001934 0.31074154 0.4477187 0.24604218
0000e0 59 42 cb be 4f 6d c6 bd 0c b6 01 3f ab 95 c3 bc
       -0.39699057 -0.09688818 0.50668406 -0.023875078
0000f0 a6 1e a3 bd 9d 07 cb 3e 13 4f 29 3e a8 1e 06 bf
       -0.0796483 0.39654246 0.1653407 -0.5239053
000100 37 87 65 3e 8a 0f db bd d8 0e 84 3e 63 bc 8a bd
       0.22414862 -0.10696323 0.25792575 -0.06774213
000110 a1 b2 16 3d 1c 3e 9e be 34 01 3e bf 27 ad ef bd
       0.036791448 -0.3090676 -0.74220586 -0.11702948
000120 e6 85 b9 bd 02 c4 fb bd 60 54 ec 3e a3 2c 04 3f
       -0.09058742 -0.12293245 0.46158123 0.5163061
000130 f4 2a b4 3e fa 22 61 be 6d 21 03 bf 3a 1b a2 be
       0.3518902 -0.21985999 -0.5122288 -0.31661397
000140 e7 07 b6 3e 1a fa ff bd e6 3c f0 3c 74 22 cd 3e
       0.35552904 -0.12498875 0.029325914 0.40065348
000150 0d cd 37 3e 19 75 32 3e e2 59 37 bf 52 78 17 be
       0.17949314 0.17427482 -0.71621525 -0.14791992
000160 76 27 02 bf 69 e5 02 be 93 42 e6 bc ee f3 8c 3e
       -0.5084146 -0.12782826 -0.028107917 0.27529854
000170 d2 cb 13 bd 7b 7c 44 3d 85 0a 3f 3f 9a ab 6f 3e
       -0.03608305 0.047970276 0.74625427 0.23405305
000180 3a 93 8e 3d 04 f5 59 bc 07 a4 19 3f 4b 8f 75 be
       0.06961675 -0.013303045 0.6001591 -0.23980443
000190 dd e3 0f be 1e 24 56 bd 91 98 0f 3f 15 f5 1e be
       -0.14051767 -0.052280538 0.5609217 -0.15523179
0001a0 ae b5 f5 bd 0f 93 e2 be 91 68 6e be 63 88 3f be
       -0.11997543 -0.44252822 -0.23282076 -0.18704371
0001b0 5a 7e b3 be 9a e2 cf 3e 72 65 a9 bc db cc ba 3e
       -0.35057336 0.4060257 -0.020678256 0.36484417
0001c0 64 56 e5 3e 51 43 d2 3e 95 4f 6e be 11 f5 03 3e
       0.44792473 0.41066983 -0.23272546 0.12886454
0001d0 07 b0 96 3e 24 9b 8f be 4c 25 6f 3e cd dc 31 be
       0.29431173 -0.2804805 0.23354071 -0.17369385
0001e0 c9 0e c0 3d d4 97 7a 3e b5 19 47 3f e0 90 e0 be
       0.0937782 0.2447198 0.777736 -0.4386053
0001f0 a3 34 0f be 15 f8 91 be f4 d9 7b bd 4c fa 00 3f
       -0.13984923 -0.28509584 -0.061487153 0.5038192
